…
arameters: 247,577,856\u0026#39; \u0026lsquo;LLM is magic\u0026rsquo; The Transformer Architecture # We\u0026rsquo;ll now take a look inside the transformer models and see what kind of math calculations is hapenning. pytorch, the python package that the T5 model in this demo is based off, provies very good tool for visulising model structures Using models mentioned from the previous section, if you want to look at what the model architecture, you can do so by running:\n1pprint.pp(pipe.model) \u0026hellip;which in term will give you this monstrous output:\n1T5ForConditionalGeneration( 2 (shared): Embedding(32128, 768) 3 (encoder): T5Stack( 4 (embed_tokens): Embedding(32128, 768) 5 (block): ModuleList( 6 (0): T5Block( 7 (layer): ModuleList( 8 (0): T5LayerSelfAttention( 9 (SelfAttention): T5Attention( 10 (q): Linear(in_features=768, out_features=768, bias=False) 11 (k): Linear(in_features=768, out_features=768, bias=False) 12 (v): Linear(in_features=768, out_features=768, bias=False) 13 (o): Linear(in_features=768, out_features=768, bias=False) 14 (relative_attention_bias): Embedding(32, 12) 15 ) 16 (layer_norm): T5LayerNorm() 17 (dropout): Dropout(p=0.1, inplace=False) 18 ) 19 (1): T5LayerFF( 20 (DenseReluDense): T5DenseGatedActDense( 21 (wi_0): Linear(in_features=768, out_features=2048, bias=False) 22 (wi_1): Linear(in_features=768, out_features=2048, bias=False) 23 (wo): Linear(in_features=2048, out_features=768, bias=False) 24 (dropout): Dropout(p=0.1, inplace=False) 25 (act): NewGELUActivation() 26 ) 27 (layer_norm): T5LayerNorm() 28 (dropout): Dropout(p=0.1, inplace=False) 29 ) 30 ) 31 ) 32 (1-11): 11 x T5Block( 33 (layer): ModuleList( 34 (0): T5LayerSelfAttention( 35 (SelfAttention): T5Attention( 36 (q): Linear(in_features=768, out_features=768, bias=False) 37 (k): Linear(in_features=768, out_features=768, bias=False) 38 (v): Linear(in_features=768, out_features=768, bias=False) 39 (o): Linear(in_features=768, out_features=768, bias=False) 40 ) 41 (layer_norm): T5LayerNorm() 42 (dropout): Dropout(p=0.1, inplace=False) 43 ) 44 (1): T5LayerFF( 45 (DenseReluDense): T5DenseGatedActDense( 46 (wi_0): Linear(in_features=768, out_features=2048, bias=False) 47 (wi_1): Linear(in_features=768, out_features=2048, bias=False) 48 (wo): Linear(in_features=2048, out_features=768, bias=False) 49 (dropout): Dropout(p=0.1, inplace=False) 50 (act): NewGELUActivation() 51 ) 52 (layer_norm): T5LayerNorm() 53 (dropout): Dropout(p=0.1, inplace=False) 54 ) 55 ) 56 ) 57 ) 58 (final_layer_norm): T5LayerNorm() 59 (dropout): Dropout(p=0.1, inplace=False) 60 ) 61 (decoder): T5Stack( 62 (embed_tokens): Embedding(32128, 768) 63 (block): ModuleList( 64 (0): T5Block( 65 (layer): ModuleList( 66 (0): T5LayerSelfAttention( 67 (SelfAttention): T5Attention( 68 (q): Linear(in_features=768, out_features=768, bias=False) 69 (k): Linear(in_features=768, out_features=768, bias=False) 70 (v): Linear(in_features=768, out_features=768, bias=False) 71 (o): Linear(in_features=768, out_features=768, bias=False) 72 (relative_attention_bias): Embedding(32, 12) 73 ) 74 (layer_norm): T5LayerNorm() 75 (dropout): Dropout(p=0.1, inplace=False) 76 ) 77 (1): T5LayerCrossAttention( 78 (EncDecAttention): T5Attention( 79 (q): Linear(in_features=768, out_features=768, bias=False) 80 (k): Linear(in_features=768, out_features=768, bias=False) 81 (v): Linear(in_features=768, out_features=768, bias=False) 82 (o): Linear(in_features=768, out_features=768, bias=False) 83 ) 84 (layer_norm): T5LayerNorm() 85 (dropout): Dropout(p=0.1, inplace=False) 86 ) 87 (2): T5LayerFF( 88 (DenseReluDense): T5DenseGatedActDense( 89 (wi_0): Linear(in_features=768, out_features=2048, bias=False) 90 (wi_1): Linear(in_features=768, out_features=2048, bias=False) 91 (wo): Linear(in_features=2048, out_features=768, bias=False) 92 (dropout): Dropout(p=0.1, inplace=False) 93 (act): NewGELUActivation() 94 ) 95 (layer_norm): T5LayerNorm() 96 (dropout): Dropout(p=0.1, inplace=False) 97 ) 98 ) 99 ) 100 (1-11): 11 x T5Block( 101 (layer): ModuleList( 102 (0): T5LayerSelfAttention( 103 (SelfAttention): T5Attention( 104 (q): Linear(in_features=768, out_features=768, bias=False) 105 (k): Linear(in_features=768, out_features=768, bias=False) 106 (v): Linear(in_features=768, out_features=768, bias=False) 107 (o): Linear(in_features=768, out_features=768, bias=False) 108 ) 109 (layer_norm): T5LayerNorm() 110 (dropout): Dropout(p=0.1, inplace=False) 111 ) 112 (1): T5LayerCrossAttention( 113 (EncDecAttention): T5Attention( 114 (q): Linear(in_features=768, out_features=768, bias=False) 115 (k): Linear(in_features=768, out_features=768, bias=False) 116 (v): Linear(in_features=768, out_features=768, bias=False) 117 (o): Linear(in_features=768, out_features=768, bias=False) 118 ) 119 (layer_norm): T5LayerNorm() 120 (dropout): Dropout(p=0.1, inplace=False) 121 ) 122 (2): T5LayerFF( 123 (DenseReluDense): T5DenseGatedActDense( 124 (wi_0): Linear(in_features=768, out_features=2048, bias=False) 125 (wi_1): Linear(in_features=768, out_features=2048, bias=False) 126 (wo): Linear(in_features=2048, out_features=768, bias=False) 127 (dropout): Dropout(p=0.1, inplace=False) 128 (act): NewGELUActivation() 129 ) 130 (layer_norm): T5LayerNorm() 131 (dropout): Dropout(p=0.1, inplace=False) 132 ) 133 ) 134 ) 135 ) 136 (final_layer_norm): T5LayerNorm() 137 (dropout): Dropout(p=0.1, inplace=False) 138 ) 139 (lm_head): Linear(in_features=768, out_features=32128, bias=False) 140) T5 model belongs to a sub-category of transformers called \u0026rsquo;encoder-decoder\u0026rsquo;. That is, it\u0026rsquo;s a combination of an encoder followed by a decoder. This post is a general introductions of the basics, and I\u0026rsquo;ll talk about encoder/ decoders in more detail in more detail about this in the future.\nLayer-by-Laye
…
